lstm-adamw.pt (torch, 146918 bytes, 7 tensors)

embedding.weight f4 [40, 64]
0	0x00000000	0.0
1	0x00000000	0.0
2	0x00000000	0.0
3	0x00000000	0.0
4	0x00000000	0.0
5	0x00000000	0.0
6	0x00000000	0.0
7	0x00000000	0.0
8	0x00000000	0.0
9	0x00000000	0.0
10	0x00000000	0.0
11	0x00000000	0.0
12	0x00000000	0.0
13	0x00000000	0.0
14	0x00000000	0.0
15	0x00000000	0.0
16	0x00000000	0.0
17	0x00000000	0.0
18	0x00000000	0.0
19	0x00000000	0.0
20	0x00000000	0.0
21	0x00000000	0.0
22	0x00000000	0.0
23	0x00000000	0.0
24	0x00000000	0.0
25	0x00000000	0.0
26	0x00000000	0.0
27	0x00000000	0.0
28	0x00000000	0.0
29	0x00000000	0.0
30	0x00000000	0.0
31	0x00000000	0.0
32	0x00000000	0.0
33	0x00000000	0.0
34	0x00000000	0.0
35	0x00000000	0.0
36	0x00000000	0.0
37	0x00000000	0.0
38	0x00000000	0.0
39	0x00000000	0.0
40	0x00000000	0.0
41	0x00000000	0.0
42	0x00000000	0.0
43	0x00000000	0.0
44	0x00000000	0.0
45	0x00000000	0.0
46	0x00000000	0.0
47	0x00000000	0.0
48	0x00000000	0.0
49	0x00000000	0.0
50	0x00000000	0.0
51	0x00000000	0.0
52	0x00000000	0.0
53	0x00000000	0.0
54	0x00000000	0.0
55	0x00000000	0.0
56	0x00000000	0.0
57	0x00000000	0.0
58	0x00000000	0.0
59	0x00000000	0.0
60	0x00000000	0.0
61	0x00000000	0.0
62	0x00000000	0.0
63	0x00000000	0.0
64	0xbf221bb1	-0.63323504
65	0xbcef2f6a	-0.029197413
66	0x3c892f53	0.016746199
67	0xbf49d658	-0.7884269
68	0x3e3205ed	0.17385073
69	0x3eb65fd6	0.35619992
70	0xbe1dccc6	-0.15410146
71	0x3ee30246	0.44337672
72	0xbf390f9c	-0.72289443
73	0xbed093c5	-0.4073774
74	0xbf194417	-0.5986952
75	0xbeb4707b	-0.35242066
76	0xbf0729ed	-0.5279835
77	0x3e759c63	0.23985438
78	0x3e8fe31a	0.28102952
79	0x3f8f1515	1.1178309
80	0x3c7a162b	0.015264074
81	0x3ccf782d	0.025325859
82	0xbee06ce9	-0.43833092
83	0xbe2a9c03	-0.16661076
84	0xbe5ede1f	-0.2176442
85	0x3f225247	0.63406795
86	0xbecb2dc3	-0.3968335
87	0x3f34b74c	0.7059219
88	0xbf0e3b98	-0.5555968
89	0x3a74d403	0.00093394535
90	0xbd936b31	-0.071981795
91	0xbf09cd7e	-0.5382918
92	0x3e935e4f	0.2878289
93	0xbf1a8328	-0.6035638
94	0xbda08f34	-0.07839814
95	0xbf876b4a	-1.0579617
96	0x3e813e2f	0.25242755
97	0xbe357956	-0.17722067
98	0xbea462b5	-0.32106557
99	0xbf0ba7a7	-0.5455269
100	0x3db58fde	0.08865331
101	0x3e0cd40e	0.13752767
102	0x3ef3b499	0.47598723
103	0x3e84ac7a	0.2591284
104	0xbf9bd496	-1.2174251
105	0x3dfb27fd	0.122634865
106	0xbdf6abe1	-0.12044502
107	0x3ea66d3d	0.32505217
108	0x3e517c84	0.20457655
109	0x3eed7c58	0.4638393
110	0x3e373898	0.17892683
111	0xbda93e08	-0.08263785
112	0x3ebc4b5e	0.3677625
113	0x3e1e4112	0.1545451
114	0xbeda1fc7	-0.4260237
115	0xbf667f52	-0.90038025
116	0x3d418e57	0.047254886
117	0x3d144717	0.03620061
118	0x3e69334f	0.22773479
119	0x3f3f5f86	0.7475513
120	0x3e817133	0.25281677
121	0xbdbb670b	-0.09150513
122	0x3ea73343	0.32656297
123	0x3f8a373b	1.0798105
124	0xbd15b20e	-0.03654676
125	0xbf1ee2aa	-0.6206461
126	0xbed2a1e7	-0.41139147
127	0xbf4415cb	-0.76595753
128	0xbebde1d8	-0.37086368
129	0xbf068942	-0.5255319
130	0xbedf5b05	-0.4362413
131	0xbec63d12	-0.38718468
132	0x3ea94605	0.33061233
133	0x3e5ed7f1	0.21762063
134	0x3e164989	0.14676489
135	0x3eda0e4c	0.42589033
136	0x3ecfbcee	0.4057383
137	0x3f27d5b5	0.65560466
138	0xbef1a840	-0.47198677
139	0x3e3047a7	0.17214833
140	0xbe8763bd	-0.26443282
141	0x3ec931f1	0.39295915
142	0xbe9cc6c1	-0.30620387
143	0x3d6d4498	0.057926744
144	0xbe62f5a6	-0.2216402
145	0xbf6c9fbd	-0.9243124
146	0xbede7b5b	-0.43453488
147	0x3c83952b	0.01606234
148	0xbf60f796	-0.87877786
149	0x3ee5cc0e	0.44882244
150	0x3ef17ef4	0.4716717
151	0xbf42b42a	-0.7605616
152	0xbe0e0a37	-0.13871084
153	0xbde14fd6	-0.110015556
154	0xbf3d8ce0	-0.74043083
155	0xbeb9dc44	-0.36300862
156	0xbec0604d	-0.37573472
157	0xbeef9477	-0.46792957
158	0x3ef9cd98	0.48789668
159	0xbe43eada	-0.19132558
160	0xbf450c55	-0.7697194
161	0xbf182610	-0.5943308
162	0xbf0a690e	-0.5406655
163	0x3e0432e8	0.12910044
164	0x3d99ecda	0.07515879
165	0xbed87d29	-0.4228299
166	0xbeece49b	-0.46268162
167	0x3ca40fbe	0.020027038
168	0xbe5c8649	-0.215356
169	0x3ee0f12a	0.43933994
170	0x3ed8b603	0.42326364
171	0xbe9ae8ca	-0.3025573
172	0x3edfab5d	0.43685427
173	0x3e1f236e	0.15540859
174	0xbf0083a0	-0.50200844
175	0x3e4b00da	0.19824544
176	0xbe2f8dd7	-0.17143951
177	0x3ed37ce7	0.4130623
178	0xbf1eca76	-0.6202768
179	0x3d0ef70b	0.034903567
180	0xbe87df93	-0.2653776
181	0x3edaf1eb	0.42762694
182	0x3ea8f4b8	0.32999206
183	0x3e903d97	0.2817199
184	0x3e2d6df4	0.16936475
185	0xbeec92df	-0.46205804
186	0x3f12a8c7	0.57288784
187	0x3c113ebc	0.008865055
188	0x3ee7e86e	0.45294517
189	0xbf063520	-0.5242481
190	0xbe09bd33	-0.1345108
191	0x3cafd9f2	0.02146623
192	0xbe5e4187	-0.21704684
193	0x3ec1a732	0.37822872
194	0xbea2012e	-0.31641525
195	0xbebaa9be	-0.36457628
196	0xbd5451c1	-0.05183578
197	0x3db60b96	0.088889286
198	0x3ed7b24e	0.42128223
199	0x3de35ecb	0.11102065
200	0xbf1ccf6a	-0.6125399
201	0xbe2e1efb	-0.17004006
202	0xbea11afa	-0.31465894
203	0xbe76e8d2	-0.24112251
204	0x3cf6a11d	0.030106122
205	0xbe753061	-0.23944236
206	0xbea12f3b	-0.31481346
207	0x3f25d769	0.64781815
208	0xbe0ce460	-0.13758993
209	0x3ed08e21	0.40733436
210	0xbeb3c91f	-0.3511438
211	0x3f02db91	0.5111628
212	0xbd0397c0	-0.032127142
213	0x3ecbe55b	0.39823422
214	0xbe6fc898	-0.23416364
215	0xbe614b7f	-0.22001456
216	0xbe96866b	-0.29399428
217	0x3ee55c37	0.44796917
218	0xbd408537	-0.047002044
219	0xbeb31329	-0.34975556
220	0xbdacc097	-0.08435171
221	0xbe5346cf	-0.2063248
222	0x3e356b40	0.17716694
223	0xbf00a4b0	-0.50251293
224	0xbe412871	-0.18863083
225	0xbeb5e5ac	-0.35526788
226	0x3ddfd6ac	0.10929617
227	0xbeef4e0a	-0.46739227
228	0xbebfab6c	-0.37435472
229	0xb91f9f0a	-0.00015222668
230	0x3e77db9b	0.24204867
231	0xbe2eb1a8	-0.17059958
232	0xbe9ab7c1	-0.30218318
233	0xbe44c1e3	-0.19214587
234	0xbef90cce	-0.48642582
235	0x3f3b1ac0	0.7308769
236	0xbe5797bf	-0.2105398
237	0x3f190756	0.5977682
238	0x3ef59c50	0.4797082
239	0x3d68fd57	0.05688223
240	0xbe02d5c4	-0.12776858
241	0x3e9ac8fa	0.30231458
242	0xbe4df04b	-0.20111196
243	0xbecde940	-0.40217018
244	0x3ee8997b	0.45429596
245	0x3e48228c	0.19544429
246	0xbe822c8b	-0.2542461
247	0x3e412f9b	0.18865816
248	0x3e41b4c6	0.18916616
249	0xbddda782	-0.10822965
250	0xbf1d6a6c	-0.6149051
251	0x3eb1eada	0.3474949
252	0x3dc0610b	0.093935095
253	0xbebf40f6	-0.3735425
254	0xbd989f6c	-0.07452282
255	0xbf172793	-0.5904476

encoder.weight_ih_l0 f4 [256, 64]
0	0x3d38726a	0.04503099
1	0x3e24450f	0.16041969
2	0xbe20148e	-0.15632841
3	0x3e0cbac8	0.13743126
4	0xbf079537	-0.5296206
5	0x3e01a375	0.1266001
6	0xbf2f8f5a	-0.6857811
7	0xbe4d0d2e	-0.20024559
8	0xbebc9d2d	-0.36838666
9	0xbd13cf7c	-0.036086544
10	0x3e5acb6f	0.21366666
11	0x3e2a2eaa	0.16619363
12	0x3e1aef67	0.15130387
13	0xbe488665	-0.19582517
14	0x3e73a9c8	0.23795235
15	0x3eccb280	0.39979935
16	0x3e640c29	0.22270264
17	0x3eab3171	0.33436158
18	0x3ebdfa37	0.3710496
19	0x3ed34e84	0.4127084
20	0xbe0c4a85	-0.13700302
21	0x3dfa95f4	0.122356325
22	0x3e113388	0.14179814
23	0x3d6f5827	0.058433678
24	0x3e979984	0.2960931
25	0x3e3b4037	0.18286215
26	0x3e0e201e	0.13879439
27	0xbe16ea48	-0.14737809
28	0xbe2e5051	-0.17022826
29	0x3da905a0	0.08253026
30	0xbea188f2	-0.31549793
31	0x3e17fb2c	0.14841908
32	0x3e021a38	0.12705314
33	0x3df4f40d	0.119606115
34	0xbca19a3d	-0.019726867
35	0x3ede578c	0.43426168
36	0x3c85f719	0.016353177
37	0xbe5ef375	-0.21772559
38	0xbde7b900	-0.11314583
39	0xbe5c3411	-0.21504237
40	0x3e6affb2	0.22949103
41	0x3e5db226	0.2164999
42	0x3b05f3c0	0.0020439476
43	0x3e812f4f	0.25231406
44	0x3ccf39a7	0.025296045
45	0xbdce8339	-0.100836225
46	0x3d3eccd7	0.04658207
47	0xbd8878d5	-0.06663672
48	0x3de17839	0.11009259
49	0xbcfc602d	-0.030807579
50	0xbec34c0b	-0.38143954
51	0xbdbe177d	-0.09281824
52	0x3ea2ca23	0.31794843
53	0xbf42bbb7	-0.7606768
54	0xbea8eef4	-0.32994807
55	0x3e08ccd4	0.13359386
56	0xbdb478d7	-0.08812111
57	0x3f0402a2	0.5156652
58	0xbd110a5f	-0.03541028
59	0xbe836c2b	-0.25668463
60	0x3f103264	0.5632689
61	0xbd92267a	-0.07136245
62	0x3e5ea1d5	0.21741422
63	0xbe255b34	-0.16148072
64	0x3f1738be	0.59070957
65	0xbdaf9aa5	-0.08574418
66	0xbda07e93	-0.07836642
67	0x3da46f66	0.0802906
68	0x3d9b5ec0	0.075864315
69	0x3d6a6f2a	0.05723492
70	0xbe09774e	-0.13424417
71	0xbed7e56b	-0.4216722
72	0xbec22b56	-0.37923688
73	0xbe0b9dd1	-0.13634421
74	0xbde81668	-0.11332399
75	0x3d38e1a6	0.04513707
76	0x3d82f9da	0.06395312
77	0x3dacd0be	0.08438252
78	0x3e6500a1	0.22363521
79	0xbe436bb8	-0.1908406
80	0x3d6c67d6	0.057716213
81	0x3e0a821a	0.13526192
82	0x3d49beb7	0.049254145
83	0x3dc21d4a	0.09478243
84	0x3ee302b6	0.44338006
85	0xbefaa5e6	-0.48954695
86	0x3e37bd9e	0.17943427
87	0x3d9d911d	0.07693694
88	0xbdfdc088	-0.12390238
89	0x3d8b2a50	0.0679518
90	0x3dd4bff5	0.103881754
91	0x3e328340	0.1743288
92	0x3e2dcbd6	0.16972288
93	0xbdcf85ae	-0.10132919
94	0x3d3516de	0.04421126
95	0xbec26a3b	-0.37971672
96	0x3e031fa6	0.12805042
97	0x3eeae3a7	0.4587681
98	0xbd665bf3	-0.056240033
99	0x3f0bdea7	0.54636616
100	0xbe7c96ff	-0.24666975
101	0x3dafbccf	0.08580934
102	0x3cdf2820	0.027240813
103	0xbe812bc8	-0.25228715
104	0xbd688a9f	-0.056772824
105	0x3e06ba7c	0.13157076
106	0xbe645eae	-0.22301742
107	0xbdec58a8	-0.11540347
108	0xbddbb431	-0.10727728
109	0x3e2c4787	0.1682416
110	0xbc417385	-0.011807327
111	0xbd4c3317	-0.04985341
112	0xbd0338ae	-0.032036476
113	0xbec856d4	-0.39128745
114	0xbdfcbb8b	-0.123404585
115	0xbe536dcc	-0.20647353
116	0xbcf4f831	-0.029903503
117	0x3e3c2bce	0.18376085
118	0xbee1853b	-0.4404696
119	0x3f110c94	0.5665982
120	0xbd95cb79	-0.073142
121	0xbe7ce2ac	-0.24695843
122	0xbeb31d99	-0.3498352
123	0x3cfea2e2	0.031083528
124	0xbcd263a7	-0.025682284
125	0x3df812f4	0.1211299
126	0xbe4df7be	-0.20114037
127	0x3defcbe0	0.11708808
128	0x3ec7d5d6	0.3903033
129	0x3e2d1f29	0.16906418
130	0xbc5de0df	-0.013542383
131	0x3d92ff8f	0.0717765
132	0xbe5a0fae	-0.21295044
133	0xbeb9b3da	-0.36270028
134	0xbc9292eb	-0.017892322
135	0x3e0628a7	0.13101445
136	0xbe872103	-0.26392373
137	0xbdcc2f2e	-0.09969936
138	0xbe16035e	-0.14649722
139	0x3d83f51f	0.064432375
140	0x3ead8a58	0.3389461
141	0xbed3044e	-0.41214222
142	0x3deb9ab9	0.115041204
143	0x3c97163f	0.018443225
144	0x3e2a5dae	0.16637298
145	0x3e639baa	0.2222735
146	0x3e585038	0.21124351
147	0x3de2fb40	0.110830784
148	0xbe10c43f	-0.14137362
149	0xbef105a5	-0.4707462
150	0xbea8f0ae	-0.32996124
151	0x3ea253dd	0.31704608
152	0xbcac8722	-0.02106053
153	0xbdf16a07	-0.11787801
154	0x3e40a42c	0.18812627
155	0x3d003b69	0.031306658
156	0x3de2370a	0.11045654
157	0xbe87fa35	-0.2655808
158	0xbce78c5f	-0.028265176
159	0xbe28bc8a	-0.16478172
160	0xbe4cef31	-0.2001312
161	0x3e25b644	0.1618281
162	0xbe4c6248	-0.19959366
163	0x3d695788	0.056968242
164	0x3d5120c6	0.051056646
165	0xbe346d05	-0.17619713
166	0x3e9652bb	0.29359993
167	0x3e0414b2	0.1289852
168	0x3d876346	0.06610732
169	0x3ec6c1ae	0.3881964
170	0xbe707c17	-0.23484837
171	0xbd4ea109	-0.050446544
172	0x3db82d20	0.08992982
173	0x3dd19363	0.1023319
174	0x3ebe8b72	0.37215763
175	0x3e2d13e8	0.16902125
176	0xbe9dec50	-0.30844355
177	0xbea98ef3	-0.33116874
178	0xbec09277	-0.37611744
179	0x3e55ceac	0.2087962
180	0xbe124506	-0.14284143
181	0x3e9c6e6b	0.30552992
182	0xbe152b4d	-0.14567299
183	0x3e9672de	0.29384512
184	0x3eab5ef1	0.33470872
185	0x3ea702f8	0.32619452
186	0x3e25d586	0.16194734
187	0xbe5425ba	-0.20717517
188	0x3e17a151	0.14807631
189	0x3e6a8505	0.22902305
190	0xbcbab449	-0.022791045
191	0xbc2213ec	-0.009892445
192	0xbe46e8fa	-0.19424811
193	0xbd59c1bc	-0.053163275
194	0x3e2fecdf	0.17180203
195	0xbdcbd4e7	-0.09952717
196	0x3dc5eab3	0.09663906
197	0x3ee80d2a	0.45322543
198	0xbcf8630f	-0.030320672
199	0x3d7a44de	0.061100833
200	0x3e4b14bd	0.1983213
201	0x3e477ba4	0.19480759
202	0xbba579a0	-0.005049899
203	0x3e655b72	0.22398165
204	0x3d92b946	0.07164244
205	0x3daa9f26	0.083311364
206	0x3c499a7c	0.012304898
207	0xbe0f491d	-0.13992734
208	0x3f31d988	0.6947255
209	0x3d87a17a	0.06622596
210	0xbdef78ad	-0.11692939
211	0x3ecd7c0c	0.40133703
212	0xbea36d32	-0.31919247
213	0x3e10513e	0.14093491
214	0x3dcf55cd	0.10123787
215	0xbe486dc5	-0.19573124
216	0xbe0dfc0c	-0.1386568
217	0xbd128ca0	-0.03577864
218	0xbed21803	-0.41033944
219	0xbe30ea86	-0.17276964
220	0x3e0f8b1a	0.14017907
221	0xbe4dfb61	-0.20115425
222	0xbe2c3d95	-0.16820367
223	0xbdfb0c5c	-0.12258217
224	0xbcbfc83c	-0.023410909
225	0x3ba5275b	0.005040092
226	0x3d8bc7fd	0.06825254
227	0xbe5e2914	-0.21695358
228	0xbe0e4844	-0.13894755
229	0x3cddbb98	0.02706699
230	0xbe60158b	-0.21883218
231	0xbec999af	-0.39375064
232	0x3d1a19bb	0.037622195
233	0xbdcf0a16	-0.101093456
234	0xbdd3005e	-0.103028044
235	0xbdc9c177	-0.098513536
236	0x3e37a9e1	0.17935897
237	0xbebc728e	-0.36806148
238	0x3e84816b	0.25879988
239	0xbe159ef5	-0.14611419
240	0xbdacfb54	-0.084463745
241	0x3dba66ec	0.09101662
242	0xbd8ad03b	-0.06777998
243	0x3e816ecf	0.25279853
244	0x3d1f9ae4	0.038966075
245	0x3e06d154	0.1316579
246	0xbe63abd7	-0.2223352
247	0x3e09372a	0.1339995
248	0xbe80f1fc	-0.2518462
249	0xbe017367	-0.12641679
250	0xbdd34158	-0.10315198
251	0x3e870eb4	0.26378405
252	0xbd20af5c	-0.039229736
253	0xbe5991aa	-0.21246973
254	0xbcd1fbd6	-0.02563278
255	0xbe560646	-0.2090083

encoder.weight_hh_l0 f4 [256, 64]
0	0xbf1c3ede	-0.6103343
1	0x3ef34f83	0.475216
2	0xbd8b7ac7	-0.06810527
3	0x3cd6f2cb	0.02623882
4	0xbd5fe50a	-0.054661788
5	0xbed39895	-0.41327348
6	0x3e9345ef	0.28764293
7	0x3e0d6796	0.13809046
8	0xbe6a5a04	-0.228859
9	0xbdb9ac73	-0.09066095
10	0x3e543fe9	0.20727505
11	0x3d1c4e1d	0.038160432
12	0x3da1ceb9	0.07900757
13	0xbe2559d8	-0.16147554
14	0x3e866e46	0.26256007
15	0x3cd969ae	0.02653965
16	0xbe8612d9	-0.26186255
17	0x3e06f910	0.13180947
18	0x3d385577	0.04500338
19	0xbea4bf81	-0.32177356
20	0xbf1da1ba	-0.615749
21	0x3e6c90ed	0.2310216
22	0x3f15f816	0.58581674
23	0xbeac2587	-0.3362238
24	0x3d87aef6	0.06625168
25	0xbe357b2b	-0.17722766
26	0x3d770d00	0.060315132
27	0x3bd442a8	0.0064776726
28	0x3d33a466	0.043857954
29	0xbea1ed63	-0.31626424
30	0xbf3e46ce	-0.7432679
31	0xbf7d6156	-0.9897665
32	0x3e2f8b1b	0.17142908
33	0xbf13d652	-0.577489
34	0x3db76fc3	0.08956864
35	0x3f1185f1	0.56845003
36	0xbf1c0920	-0.60951424
37	0xbf2284bf	-0.63483804
38	0xbd75b0c4	-0.05998303
39	0xbe117c5e	-0.14207599
40	0x3d9c9b99	0.076468654
41	0x3c9441d8	0.018097803
42	0xbe1a703e	-0.1508188
43	0xbdaa5d7c	-0.08318612
44	0x3e0f3222	0.13983968
45	0x3e17141a	0.14753762
46	0xbe42ff43	-0.19042687
47	0xbec2fe69	-0.38084725
48	0x3cc8349c	0.024439149
49	0x3ce6086b	0.028080186
50	0x3c2b95e6	0.01047275
51	0xbb4222ad	-0.002962272
52	0x3ee5e224	0.44899094
53	0xbe4a19a9	-0.19736351
54	0xbc420efb	-0.011844392
55	0x3d4c9e1b	0.04995547
56	0xbc3102cc	-0.0108038895
57	0x3da3682f	0.07978856
58	0xbda89b75	-0.08232776
59	0xbe478184	-0.19483
60	0xbeda67e3	-0.42657384
61	0x3ed8fe0e	0.42381328
62	0x3e1ab7f7	0.1510924
63	0xbcaa4a87	-0.02078749
64	0xbe134818	-0.1438297
65	0xbf01f7ec	-0.50768924
66	0xbebb34a1	-0.3656359
67	0xbe6e4cfc	-0.23271555
68	0xbdcc30bb	-0.09970232
69	0xbe630cc9	-0.22172846
70	0x3e1208fa	0.14261237
71	0x3d5e35d7	0.054250564
72	0x3f1b9da2	0.60787404
73	0xbe126218	-0.14295232
74	0xbf0ec72f	-0.5577268
75	0xbe10772f	-0.14107965
76	0x3eb8c138	0.36084914
77	0xbe67403c	-0.22583097
78	0x3e721055	0.23639043
79	0xbdfcecd0	-0.12349856
80	0x3e9699a5	0.29414096
81	0x3f0286e8	0.509871
82	0xbe18da71	-0.14927079
83	0xbdf87a84	-0.12132743
84	0x3bf79507	0.0075556072
85	0xbd106885	-0.035255928
86	0x3ee634e9	0.44962242
87	0x3e8d6497	0.27615806
88	0xbed02e09	-0.40660122
89	0x3c485362	0.012226911
90	0xbdd5b6f6	-0.10435288
91	0xbd4ac4f4	-0.049504235
92	0xbd2e2b21	-0.0425216
93	0x3da84332	0.082159415
94	0x3e912c37	0.28354046
95	0xbdcdcf32	-0.10049285
96	0xbf19978d	-0.59996873
97	0xbf3d0c35	-0.7384675
98	0x3bb5e50f	0.0055509876
99	0x3f09869e	0.53721035
100	0xbf0d852b	-0.55281323
101	0xbf343322	-0.7039052
102	0x3de55319	0.1119749
103	0xbea4194c	-0.3205055
104	0xbe958e54	-0.2921015
105	0xbf280d46	-0.65645254
106	0xbee29e5f	-0.44261453
107	0xbe6868f2	-0.22696283
108	0xbd55cecb	-0.052199166
109	0x3f23df35	0.6401246
110	0xbf2ec190	-0.682641
111	0x3e153818	0.1457218
112	0x3f2d0d66	0.6759857
113	0xbeb77055	-0.3582789
114	0xbd0e1095	-0.034683783
115	0xbd3126fc	-0.04325007
116	0xbeba5907	-0.36396047
117	0xbdaf0014	-0.08544937
118	0xbdab5f47	-0.08367782
119	0x3f2c6a50	0.6734972
120	0x3c810171	0.015747758
121	0x3e7df30d	0.24799748
122	0x3ea0580d	0.31317177
123	0xbeffabb2	-0.4993568
124	0x3cf41ca2	0.02979881
125	0x3f3d9bba	0.74065745
126	0x3d502c8e	0.05082374
127	0x3f1d411a	0.6142746
128	0xbdb8385a	-0.08995123
129	0x3d5e841d	0.05432521
130	0x3ecf3854	0.40472662
131	0x3e2614a9	0.16218819
132	0xbf89d96a	-1.0769475
133	0x3e9ade51	0.3024774
134	0x3e99b675	0.30022016
135	0x3e6e4bfe	0.23271176
136	0x3ef17ed2	0.4716707
137	0x3e166442	0.14686683
138	0xbe15fc81	-0.14647104
139	0xbee2acd8	-0.44272494
140	0xbed473ac	-0.414945
141	0xbe626d14	-0.22111923
142	0xbea15ad6	-0.31514615
143	0x3e431280	0.19050026
144	0xbf6762e0	-0.90385246
145	0x3f3467ef	0.7047109
146	0x3f0f8907	0.5606846
147	0xbe9b4d64	-0.30332482
148	0x3e9d6ed3	0.30748615
149	0xbf2502ba	-0.64457285
150	0xbde8dde3	-0.113704465
151	0xbd2fb77e	-0.0428996
152	0x3ecc5110	0.39905596
153	0xbea44346	-0.32082576
154	0x3eb8a77e	0.36065286
155	0xbe1974ed	-0.1498601
156	0xbeb3f52b	-0.35147986
157	0x3d7532a5	0.05986275
158	0xbd08bf76	-0.033385716
159	0x3c75d9f3	0.015005576
160	0xbe9459b0	-0.28974676
161	0xbee23bc6	-0.4418623
162	0x3e9d0999	0.30671385
163	0x3e9bb7cf	0.30413672
164	0xbe580214	-0.21094543
165	0xbf3f2abe	-0.74674594
166	0xbd181ad9	-0.03713498
167	0x3ee00c5b	0.43759426
168	0x3f532433	0.8247711
169	0x3ddfc934	0.10927048
170	0x3e3eacfb	0.18620674
171	0x3d9bd355	0.07608668
172	0xbf325ccb	-0.6967284
173	0x3c1accb2	0.009448217
174	0xbf00c602	-0.50302136
175	0x3e794bf5	0.24345382
176	0x3f2f7d9b	0.68551034
177	0x3e81395d	0.25239077
178	0x3d5c7aee	0.053828172
179	0x3d8b91e5	0.068149365
180	0x3c57f431	0.013180778
181	0xbe42413b	-0.18970196
182	0xbcd92d1c	-0.026510768
183	0x3e6c77e7	0.23092614
184	0x3ef190ea	0.47180873
185	0x3cff8804	0.031192787
186	0x3e3e2628	0.18569243
187	0xbf1130fc	-0.5671537
188	0x3f17b468	0.59259653
189	0x3ecca1a9	0.39967087
190	0xbe192398	-0.14954984
191	0xbbbc7d11	-0.0057522138
192	0xbd725c70	-0.059170187
193	0xbf4175d2	-0.75570405
194	0xbe26fc3e	-0.1630716
195	0x3f57b9eb	0.84268063
196	0x3f6f4782	0.9346849
197	0xbdc9a157	-0.09845226
198	0xbefc7a99	-0.49312285
199	0xbf03e71e	-0.5152453
200	0xbd33505a	-0.0437778
201	0x3d7a6c71	0.061138574
202	0x3f3f3a36	0.746982
203	0x3dafbfe4	0.08581522
204	0x3deabaa8	0.11461383
205	0xbe65f0fb	-0.22455208
206	0xbdbdea54	-0.0927321
207	0x3e92024b	0.28517374
208	0xbeb57598	-0.3544128
209	0xbf0fa948	-0.5611768
210	0x3c347fc1	0.011016787
211	0xbba949fa	-0.0051662894
212	0xbebabd5b	-0.36472592
213	0x3e9bc5aa	0.30424243
214	0xbf0e5f72	-0.5561439
215	0x3e8f902a	0.28039676
216	0x3e1134c9	0.14180292
217	0xbec1094d	-0.37702408
218	0xbf23a1e1	-0.6391888
219	0xbec2d8a3	-0.38055906
220	0x3edcf3b4	0.4315468
221	0xbe5401fc	-0.20703882
222	0x3f11a907	0.5689854
223	0xbe4294fa	-0.19002143
224	0x3dc535d3	0.09629407
225	0xbd5a19ef	-0.05324739
226	0x3e444df5	0.19170363
227	0xbc3d56cd	-0.011556339
228	0xbdd435e4	-0.10361841
229	0x3f36b841	0.713749
230	0xbf20688f	-0.62659544
231	0x3e914c53	0.28378543
232	0x3e403640	0.18770695
233	0xbe99e7cb	-0.30059657
234	0x3e89b4ef	0.26895854
235	0xbcc5c08f	-0.02413967
236	0x3eea76bb	0.4579371
237	0x3e68d9f1	0.22739388
238	0x3d5cc1c0	0.053895712
239	0xbe562750	-0.20913434
240	0xbeb8111b	-0.3595055
241	0xbdf82bf5	-0.12117759
242	0xbe04ad85	-0.12956817
243	0xbd739d82	-0.059476383
244	0xbea51583	-0.32242975
245	0x3bece004	0.007228853
246	0xbe1f2888	-0.15542805
247	0x3f3c57a3	0.73571223
248	0xbf0771a3	-0.5290777
249	0xbdfee8ad	-0.12446723
250	0x3d811bdb	0.06304141
251	0xbebcd9cb	-0.36884913
252	0xbeedd66f	-0.46452662
253	0x3e96e0de	0.29468435
254	0x3d4af5ed	0.04955094
255	0x3dedcfcd	0.116119005

encoder.bias_ih_l0 f4 [256]
0	0x3ea2db1f	0.318078
1	0x3cfc7c7a	0.030821074
2	0x3d942e78	0.07235426
3	0x3d8dc5a9	0.06922466
4	0x3d80addf	0.06283163
5	0x3e22cfac	0.15899533
6	0x3e25e853	0.16201906
7	0x3cdfcaae	0.027318325
8	0x3e7184ae	0.2358577
9	0xbe0f80e1	-0.14014007
10	0x3e899a02	0.2687531
11	0x3e91ba39	0.2846239
12	0x3ea50110	0.32227373
13	0x3e27dcb8	0.16392791
14	0xbe8844eb	-0.2661508
15	0x3e8e4daf	0.27793643
16	0x3edb0972	0.42780644
17	0x3e503935	0.20334323
18	0xbddaac9e	-0.10677455
19	0x3f07586c	0.52869296
20	0x3ee79fc9	0.45239094
21	0xbd2beeb3	-0.04197569
22	0x3e8c0196	0.2734496
23	0x3e49b89b	0.19699328
24	0x3eafe098	0.3435104
25	0x3e1a33c4	0.1505881
26	0x3e37a244	0.17932993
27	0x3e25846c	0.16163796
28	0x3e90e54e	0.28299946
29	0xbd11a1b4	-0.035554603
30	0x3ded468a	0.1158572
31	0x3d4dd421	0.05025113
32	0x3c34cf7d	0.011035797
33	0x3e6e8fe1	0.23297073
34	0xbf1348c0	-0.5753288
35	0x3ed2aec5	0.41148964
36	0xbe0742ff	-0.1320915
37	0x3eb33168	0.3499863
38	0x3e25ee9c	0.16204304
39	0x3e39d19a	0.18146363
40	0x3e6afa53	0.22947054
41	0x3ead70dc	0.33875167
42	0x3ec62221	0.38697913
43	0x3e9ac0b5	0.3022515
44	0x3e9b01e8	0.30274892
45	0xbd595c1c	-0.053066358
46	0x3e9bbdbe	0.304182
47	0xbdbce57a	-0.09223457
48	0x3e9e4123	0.3090907
49	0xbd839772	-0.0642537
50	0x3d196bbf	0.03745627
51	0xbd17e854	-0.0370868
52	0x3f5523ae	0.8325757
53	0x3d151395	0.036395628
54	0xbb59c55c	-0.0033229208
55	0x3ee2cb19	0.44295576
56	0x3e2bf0c8	0.1679107
57	0xbe81ff52	-0.25390106
58	0xbe18c6da	-0.14919606
59	0x3e3c6a6f	0.18399976
60	0x3e56e474	0.20985585
61	0x3ed844bd	0.42239943
62	0x3e877ee5	0.26464
63	0x3e725997	0.23666988
64	0xbecb2c68	-0.39682317
65	0xbe8bea53	-0.27327213
66	0xbe48999e	-0.1958985
67	0xbd16a3d2	-0.036777325
68	0xbe152cf8	-0.14567935
69	0x3e868eef	0.26280925
70	0x3e6662a5	0.22498567
71	0x3e59e225	0.21277674
72	0xbc148739	-0.009065443
73	0x3f09fdde	0.53902996
74	0x3c4ae995	0.012384792
75	0x3d86766f	0.06565558
76	0x3d9e5ea8	0.07732898
77	0x3e879e84	0.26488125
78	0x3e496455	0.1966718
79	0x3d565fa1	0.052337293
80	0xbe759f6e	-0.23986599
81	0x3cd2f7ea	0.02575298
82	0x3e544348	0.20728791
83	0x3df57fe0	0.11987281
84	0xbe324be2	-0.1741176
85	0xbdb561d4	-0.0885655
86	0x3caf246c	0.021379672
87	0xbe526e88	-0.20549977
88	0xbd85e9d7	-0.06538742
89	0xbe63a785	-0.22231872
90	0xbd9e51a7	-0.07730418
91	0xbd852573	-0.065012835
92	0xbd9f6ca4	-0.077843934
93	0x3e8c5ccf	0.27414557
94	0x3e10bac8	0.14133751
95	0x3e8981f8	0.2685697
96	0x3dde8610	0.10865414
97	0xbdff04d1	-0.124520905
98	0x3ef49c88	0.47775674
99	0x3d6b8e33	0.05750866
100	0x3ea22273	0.31666908
101	0xbe461ee0	-0.19347715
102	0x3ee40bdd	0.445403
103	0x3d892082	0.066956535
104	0xbe259ca7	-0.1617304
105	0x3edc47e3	0.43023595
106	0xbd980510	-0.074228406
107	0x3cb6e66a	0.022326667
108	0xbe24c90f	-0.16092323
109	0xb94b809e	-0.00019407502
110	0x3eceda69	0.4040101
111	0x3e9a1902	0.30097204
112	0x3e180840	0.14846897
113	0x3d8bdd2b	0.06829294
114	0x3e2e68c1	0.17032148
115	0x3f2d9917	0.6781172
116	0x3f4a3a4d	0.7899521
117	0x3e6264c6	0.22108755
118	0x3dd57ad7	0.104238205
119	0xbdcd62fe	-0.10028647
120	0xbe090a2a	-0.13382784
121	0x3ee6ca78	0.45076346
122	0x3e4a0e25	0.19731958
123	0xbd710c34	-0.05884953
124	0xbe6f3856	-0.23361334
125	0xbe2db154	-0.16962177
126	0xbe1f0bf9	-0.15531911
127	0x3d72886e	0.05921214
128	0x3d56fad4	0.052485302
129	0x3d21699e	0.039407365
130	0x3dc03fb0	0.093871474
131	0xbddff806	-0.109359786
132	0xbda4e1f2	-0.08050908
133	0x3de425c3	0.11140015
134	0x3d9134e7	0.070901684
135	0xbe16f78f	-0.14742874
136	0xbce8669c	-0.02836924
137	0xbdeceee0	-0.11568999
138	0xbcb2b99c	-0.021817021
139	0x3d8afc22	0.06786372
140	0xbd34b974	-0.044122174
141	0x3d0b7890	0.034050524
142	0x3de8d4b1	0.11368693
143	0x3da57051	0.08078063
144	0x3d16fe12	0.036863394
145	0xbdaa9c6b	-0.083306156
146	0x3cd850ce	0.026405718
147	0xbe04b87a	-0.12960997
148	0xbe89a5d1	-0.2688432
149	0xbb8f3c9f	-0.0043712403
150	0x3d9774f7	0.07395356
151	0x3e9f7a97	0.31148216
152	0xbe1d8614	-0.15383178
153	0xbe01b050	-0.12664914
154	0x3c8e6393	0.017381465
155	0xbd910547	-0.07081085
156	0x3dbe808d	0.09301863
157	0xbe47abfa	-0.19499198
158	0xbe594679	-0.2121829
159	0xbec7a409	-0.38992336
160	0xbd634a7f	-0.055490967
161	0xbd654684	-0.055975452
162	0xbcc93d61	-0.0245654
163	0x3dff295b	0.1245906
164	0x3c952faa	0.018211205
165	0xbcdfdc65	-0.027326772
166	0x3dccc3d1	0.099982865
167	0x3cf8b150	0.030357987
168	0x3cd02a41	0.025410773
169	0x3e9a3725	0.30120197
170	0x3d8cbc4a	0.06871851
171	0xbe64d543	-0.22346978
172	0xbdb6b94a	-0.0892206
173	0xbc0a45e9	-0.008439519
174	0xbe3f5008	-0.18682873
175	0x3d980715	0.07423226
176	0xbde41d98	-0.11138457
177	0x3d3e6b93	0.04648931
178	0x3def454e	0.11683141
179	0x3e51a865	0.20474394
180	0xbe3fd88a	-0.18734947
181	0xbe1a0eb3	-0.1504467
182	0xbdeeb07b	-0.11654755
183	0x3e2f1c41	0.17100622
184	0xbd808eb4	-0.062772185
185	0x3e348c58	0.17631662
186	0x3d154a3b	0.036447745
187	0x3d14a596	0.036290728
188	0x3e0cdbd4	0.13755733
189	0x3d0a1e7d	0.033720482
190	0xbdb81da3	-0.08990028
191	0x3dcbc417	0.099495105
192	0x3ee6cfb4	0.4508034
193	0x3e4b0683	0.19826703
194	0x3d9f0b06	0.077657744
195	0x3ebc6822	0.36798197
196	0x3e82f012	0.25573784
197	0x3ec875e5	0.39152446
198	0x3db1fa59	0.08690328
199	0x3e63e2a8	0.22254431
200	0x3da21261	0.07913662
201	0x3cdd615e	0.027023967
202	0x3e3fc888	0.1872884
203	0x3e3fb928	0.18722975
204	0x3ee6729b	0.45009312
205	0x3e96f366	0.29482573
206	0x3aa0d391	0.0012270083
207	0xbd5a937b	-0.053363305
208	0x3eccea63	0.40022573
209	0x3e6049f9	0.21903218
210	0x3d9a03ff	0.075202934
211	0x3ee69850	0.4503808
212	0x3eac4a8c	0.33650625
213	0x3e549fde	0.2076411
214	0x3e92b43c	0.28653133
215	0x3e32e809	0.17471327
216	0x3eaa1826	0.3322155
217	0x3ec2dfa6	0.38061255
218	0xbd347440	-0.044056177
219	0x3ebfcef0	0.37462568
220	0x3ee8e803	0.4548951
221	0x3e4f8439	0.20265283
222	0x3e6205e6	0.22072563
223	0x3eab7f75	0.3349568
224	0x3e3351a4	0.17511612
225	0x3ebaf9fd	0.3651885
226	0x3e88b72b	0.26702246
227	0x3f03e348	0.5151868
228	0x39851c80	0.0002538897
229	0x3e62b5c9	0.22139658
230	0x3dc96ed8	0.09835595
231	0x3edd24ab	0.43192038
232	0x3e68de81	0.22741129
233	0x3f019fca	0.50634444
234	0x3e7dbedd	0.2477984
235	0x3e3562e9	0.17713512
236	0x3e847885	0.258732
237	0x3def09f8	0.11671823
238	0x3ef416b1	0.47673562
239	0xbdbf4faa	-0.093413666
240	0x3e9975f8	0.29972816
241	0x3d914fbb	0.070952855
242	0x3b9abf3a	0.004722503
243	0x3ed40776	0.41411942
244	0xbd188a79	-0.037241433
245	0x3e14950b	0.1450998
246	0x3df6d0f9	0.12051577
247	0x3f0b17b7	0.5433306
248	0x3db847ab	0.089980446
249	0x3e179ecd	0.14806671
250	0x3da76416	0.08173387
251	0x3eb6d4c3	0.357092
252	0x3e65b65a	0.22432843
253	0x3e6dda03	0.23227696
254	0x3e8005ad	0.2500433
255	0x3d81c5a4	0.06336525

encoder.bias_hh_l0 f4 [256]
0	0x3ea2d31c	0.3180169
1	0x3cfcdd7f	0.030867336
2	0x3d940de5	0.07229213
3	0x3d8dcfca	0.06924398
4	0x3d80aadd	0.062825896
5	0x3e22ba21	0.15891315
6	0x3e25dfa3	0.16198592
7	0x3cdf8a82	0.027287725
8	0x3e7169c2	0.235755
9	0xbe0f98c7	-0.14023124
10	0x3e899d41	0.26877788
11	0x3e91adf9	0.28453043
12	0x3ea5081f	0.32232758
13	0x3e27cda9	0.16387047
14	0xbe884f29	-0.26622894
15	0x3e8e6348	0.2781012
16	0x3edb047b	0.42776856
17	0x3e50428f	0.2033789
18	0xbdda99b3	-0.10673847
19	0x3f0756e2	0.5286695
20	0x3ee796a6	0.45232123
21	0xbd2bc9bf	-0.041940447
22	0x3e8c042f	0.27346942
23	0x3e49a0c1	0.19690229
24	0x3eafcde6	0.34336776
25	0x3e1a399d	0.1506104
26	0x3e37b334	0.17939454
27	0x3e256ff8	0.16155994
28	0x3e90f1f2	0.2830959
29	0xbd112a33	-0.035440635
30	0x3ded66da	0.11591883
31	0x3d4ddda9	0.05026022
32	0x3c367aa5	0.011137639
33	0x3e6e7758	0.23287714
34	0xbf1349e5	-0.5753463
35	0x3ed2a36d	0.4114031
36	0xbe074624	-0.1321035
37	0x3eb32528	0.34989285
38	0x3e25dd9d	0.1619782
39	0x3e39be61	0.1813903
40	0x3e6afe8a	0.22948661
41	0x3ead826c	0.33888566
42	0x3ec62045	0.38696495
43	0x3e9abfe6	0.30224532
44	0x3e9aff33	0.30272827
45	0xbd597219	-0.053087328
46	0x3e9bc260	0.30421734
47	0xbdbcdc18	-0.09221667
48	0x3e9e43dd	0.3091115
49	0xbd83b662	-0.06431271
50	0x3d194731	0.03742141
51	0xbd183ee3	-0.03716935
52	0x3f551ec7	0.8325009
53	0x3d155ecb	0.036467355
54	0xbb5ec4f8	-0.0033991914
55	0x3ee2daf8	0.44307685
56	0x3e2c096a	0.16800466
57	0xbe81f2ef	-0.25380656
58	0xbe18b11e	-0.14911315
59	0x3e3c4f63	0.18389659
60	0x3e56bcb2	0.20970419
61	0x3ed854b5	0.42252126
62	0x3e878a77	0.26472828
63	0x3e72515f	0.23663853
64	0xbecb3755	-0.39690652
65	0xbe8beb1f	-0.2732782
66	0xbe489a27	-0.19590054
67	0xbd16a3a8	-0.03677717
68	0xbe15142d	-0.14558478
69	0x3e868f47	0.26281187
70	0x3e66584f	0.22494625
71	0x3e5a0518	0.21291006
72	0xbc14417e	-0.009048818
73	0x3f09fe1a	0.53903353
74	0x3c4bfa6e	0.012449844
75	0x3d866db4	0.06563893
76	0x3d9e62a7	0.0773366
77	0x3e8791f6	0.26478547
78	0x3e495114	0.19659835
79	0x3d55f0fc	0.052231774
80	0xbe75a8a2	-0.2399011
81	0x3cd27975	0.02569268
82	0x3e5444e6	0.20729408
83	0x3df5731d	0.11984847
84	0xbe324430	-0.17408824
85	0xbdb59674	-0.08866587
86	0x3caff12e	0.021477308
87	0xbe526eb8	-0.20550048
88	0xbd85da4b	-0.06535777
89	0xbe638f8d	-0.22222729
90	0xbd9e6c06	-0.077354476
91	0xbd851ec9	-0.065000124
92	0xbd9fb948	-0.077990115
93	0x3e8c5384	0.27407467
94	0x3e10b436	0.14131245
95	0x3e897d48	0.26853395
96	0x3dde4a49	0.108540125
97	0xbdff2d3d	-0.124598004
98	0x3ef4a3f2	0.4778133
99	0x3d6bf2af	0.057604488
100	0x3ea22aa3	0.31673154
101	0xbe45fe4e	-0.19335291
102	0x3ee41824	0.44549668
103	0x3d893429	0.06699402
104	0xbe25909b	-0.16168444
105	0x3edc5a33	0.43037567
106	0xbd97fb94	-0.074210316
107	0x3cb80072	0.02246115
108	0xbe24bee8	-0.1608845
109	0xb94482be	-0.00018740722
110	0x3ecedbd9	0.40402105
111	0x3e9a1b6a	0.3009904
112	0x3e1808e5	0.14847143
113	0x3d8c13c6	0.06839709
114	0x3e2e6aca	0.17032924
115	0x3f2d9f57	0.6782126
116	0x3f4a34c4	0.78986764
117	0x3e6260fd	0.2210731
118	0x3dd597d7	0.10429352
119	0xbdcd31f7	-0.10019296
120	0xbe090ea9	-0.13384499
121	0x3ee6c520	0.4507227
122	0x3e4a0e66	0.19732055
123	0xbd70a5a8	-0.058751732
124	0xbe6f11fc	-0.23346704
125	0xbe2db8dc	-0.1696505
126	0xbe1ee275	-0.15516074
127	0x3d72b369	0.05925313
128	0x3d56c43c	0.052433237
129	0x3d2130cd	0.03935318
130	0x3dc02243	0.09381535
131	0xbddfd286	-0.10928826
132	0xbda4dccd	-0.08049927
133	0x3de43563	0.11142995
134	0x3d90fb7c	0.07079217
135	0xbe16f012	-0.14740017
136	0xbce8893b	-0.02838575
137	0xbded24cc	-0.11579284
138	0xbcb22bcf	-0.021749405
139	0x3d8ae478	0.06781858
140	0xbd34a201	-0.04409981
141	0x3d0ae85b	0.033912998
142	0x3de8e05f	0.113709204
143	0x3da54a86	0.08070855
144	0x3d16eaae	0.0368449
145	0xbdaabd39	-0.083368726
146	0x3cd86be4	0.026418634
147	0xbe04d568	-0.12972033
148	0xbe89a99b	-0.2688721
149	0xbb905f16	-0.0044058664
150	0x3d977704	0.07395747
151	0x3e9f7db0	0.3115058
152	0xbe1d974b	-0.15389745
153	0xbe01b8d3	-0.12668161
154	0x3c8e06a6	0.017337155
155	0xbd90b153	-0.07065072
156	0x3dbe5a31	0.092945464
157	0xbe47d36e	-0.19514248
158	0xbe592670	-0.21206069
159	0xbec79100	-0.38977814
160	0xbd63eb3e	-0.055644266
161	0xbd6554ab	-0.05598895
162	0xbcca3a8c	-0.02468612
163	0x3dff2179	0.12457556
164	0x3c944bf9	0.018102633
165	0xbcdf68fa	-0.027271736
166	0x3dcc9f37	0.09991305
167	0x3cf8baa6	0.030362438
168	0x3ccfb1c0	0.025353312
169	0x3e9a4339	0.30129412
170	0x3d8cbad8	0.06871575
171	0xbe64c713	-0.22341566
172	0xbdb6c7e1	-0.089248426
173	0xbc0b3c4f	-0.008498265
174	0xbe3f675e	-0.18691775
175	0x3d97d5d5	0.07413832
176	0xbde3c9bf	-0.111224644
177	0x3d3eaee9	0.046553526
178	0x3def1708	0.11674315
179	0x3e519d54	0.20470172
180	0xbe3fd476	-0.18733391
181	0xbe1a13ac	-0.15046567
182	0xbdee69ce	-0.116412744
183	0x3e2f239c	0.17103428
184	0xbd80533e	-0.06265877
185	0x3e3477f5	0.17623885
186	0x3d156557	0.0364736
187	0x3d14c220	0.036317945
188	0x3e0cdbbc	0.13755697
189	0x3d0a7c88	0.03381017
190	0xbdb806f9	-0.08985705
191	0x3dcb82cf	0.09937059
192	0x3ee6c90a	0.45075256
193	0x3e4b1691	0.19832827
194	0x3d9f0b4c	0.077658266
195	0x3ebc6d62	0.36802202
196	0x3e82da35	0.25557104
197	0x3ec8878a	0.39165908
198	0x3db1c303	0.08679774
199	0x3e63d3a6	0.22248706
200	0x3da2316e	0.07919584
201	0x3cdd6782	0.027026895
202	0x3e3fb65b	0.18721907
203	0x3e3fccc1	0.18730451
204	0x3ee68027	0.45019647
205	0x3e96e188	0.29468942
206	0x3a925826	0.0011165186
207	0xbd5a29e7	-0.053262617
208	0x3ecce720	0.40020084
209	0x3e602928	0.218907
210	0x3d9a0fa4	0.075225145
211	0x3ee6983a	0.45038015
212	0x3eac50ae	0.33655304
213	0x3e54aff5	0.20770247
214	0x3e92ad50	0.28647852
215	0x3e32e569	0.17470326
216	0x3eaa1a51	0.33223203
217	0x3ec2e801	0.3806763
218	0xbd34aac7	-0.04410818
219	0x3ebfc2f4	0.37453425
220	0x3ee8dffc	0.45483387
221	0x3e4f7666	0.20260009
222	0x3e62245d	0.22084184
223	0x3eab8ad5	0.33504358
224	0x3e336f34	0.1752289
225	0x3ebb0255	0.36525217
226	0x3e88bb50	0.26705408
227	0x3f03e3e4	0.5151961
228	0x3985495f	0.00025422403
229	0x3e62c186	0.22144136
230	0x3dc94b53	0.0982882
231	0x3edd2439	0.43191698
232	0x3e68dc4f	0.22740291
233	0x3f01a4a7	0.50641865
234	0x3e7ddca3	0.24791197
235	0x3e354c58	0.17704904
236	0x3e848a8a	0.25886947
237	0x3def0452	0.11670746
238	0x3ef41101	0.47669223
239	0xbdbf6f84	-0.09347442
240	0x3e9976ba	0.29973394
241	0x3d9133ad	0.070899345
242	0x3b9a8cd0	0.004716493
243	0x3ed3fe0b	0.41404757
244	0xbd188b2d	-0.037242103
245	0x3e149c7d	0.1451282
246	0x3df6d81c	0.12052938
247	0x3f0b16be	0.54331577
248	0x3db81435	0.08988229
249	0x3e17ac4f	0.14811824
250	0x3da712f9	0.081579156
251	0x3eb6c93a	0.357004
252	0x3e65a7ec	0.22427338
253	0x3e6dca49	0.23221697
254	0x3e800827	0.2500622
255	0x3d819d63	0.06328847

attention.attn.weight f4 [1, 64]
0	0xbd32ab20	-0.04362023
1	0x3d07c825	0.033149857
2	0x3e4a09b1	0.1973026
3	0xbbb1fbf5	-0.005431647
4	0xbf5d7a11	-0.86514384
5	0xbe8ed3ba	-0.2789591
6	0xbe040226	-0.12891445
7	0xbe0f6659	-0.14003886
8	0xbeaded11	-0.3396993
9	0xbed433f2	-0.4144588
10	0x3d8dfb8f	0.069327466
11	0xbe0d200e	-0.13781759
12	0x3da51331	0.08060301
13	0xbe9527ad	-0.29131833
14	0x3d76ebcc	0.060283467
15	0xbe3e02c9	-0.1855575
16	0x3e81caf9	0.25350168
17	0xbe2bc0ed	-0.16772814
18	0xbde66a5e	-0.11250757
19	0xbdc73776	-0.09727375
20	0xbd387f84	-0.045043483
21	0x3e62ee4b	0.22161214
22	0xbe778c30	-0.24174571
23	0x3dd6423f	0.10461854
24	0xbea32eb6	-0.31871575
25	0xbecfb2fd	-0.40566245
26	0x3e9aa0d6	0.30200833
27	0xbc76f422	-0.015072854
28	0xbe8b75c7	-0.27238294
29	0x3e3e4440	0.18580723
30	0x3db271d8	0.0871312
31	0x3e8027cd	0.25030366
32	0xbf41500d	-0.7551277
33	0x3e26040b	0.1621248
34	0x3e227894	0.1586631
35	0xbf381079	-0.71900135
36	0x3d0e3d47	0.034726407
37	0x3ec47e67	0.38377687
38	0x3e380581	0.1797085
39	0xbe600ed3	-0.21880655
40	0x3e6813d8	0.2266382
41	0x3d82d50d	0.063882925
42	0x3e93007e	0.28711313
43	0x3e22ba96	0.1589149
44	0x3ea1d345	0.31606498
45	0x3d9f5b25	0.07781056
46	0x3e896ab1	0.26839212
47	0x3e8a4794	0.27007735
48	0x3e294830	0.16531444
49	0xbf0dfac9	-0.5546079
50	0xbd69f27f	-0.057116028
51	0xbee6010c	-0.44922674
52	0x3e2b6cd3	0.16740732
53	0xbe227975	-0.15866645
54	0xbe51d665	-0.20491941
55	0xbe106e13	-0.1410449
56	0x3d4649bf	0.048410174
57	0x3d3f3449	0.046680722
58	0x3dcf7302	0.10129358
59	0x3eadbc0e	0.33932537
60	0x3e321531	0.17390896
61	0xbd7b2bd2	-0.061321087
62	0xbe3a977e	-0.18221852
63	0x3ca20d7a	0.019781817

fc.weight f4 [1, 64]
0	0x3ee792ec	0.4522928
1	0xbe9adcd3	-0.302466
2	0x3f193185	0.59841186
3	0xbe222bec	-0.15837067
4	0x3d7a2fc4	0.06108071
5	0x3ed06375	0.4070088
6	0x3e59861f	0.2124257
7	0x3e57474e	0.21023294
8	0xbe660f60	-0.22466803
9	0xbea8edce	-0.3299393
10	0x3f2d97f9	0.67810017
11	0x3f4e3929	0.8055597
12	0x3c24a6f9	0.010049575
13	0x3e05558a	0.13020912
14	0xbf968da8	-1.176198
15	0x3e1d5df6	0.15367875
16	0x3dcd57e8	0.100265324
17	0xbd11bf11	-0.035582606
18	0xbe2540b4	-0.16137964
19	0x3f461f68	0.7739167
20	0xbe8f8802	-0.28033453
21	0xbdefa184	-0.117007285
22	0xbf1fede7	-0.62472385
23	0x3f5a306e	0.8523015
24	0x3edcc4b5	0.43118826
25	0xbe9534b1	-0.29141763
26	0xbd211d28	-0.039334446
27	0xbed41c7f	-0.4142799
28	0xbf5f0660	-0.871191
29	0xbf128215	-0.5722974
30	0x3d1fc881	0.039009575
31	0x3f742f36	0.9538454
32	0xbd9e641e	-0.077339396
33	0x3e74a1da	0.23889866
34	0xbf9fc74f	-1.2482699
35	0x3e529d84	0.205679
36	0xbf25a1af	-0.64699835
37	0xbe2d45b5	-0.16921122
38	0xbf2cc234	-0.6748383
39	0x3dc64974	0.09681979
40	0x3f223446	0.6336101
41	0xbf966307	-1.1748971
42	0xbe67cfe2	-0.22637895
43	0xbedbe3e0	-0.42947292
44	0xbe973874	-0.29535258
45	0xbf3d5bb0	-0.7396803
46	0xbe768a41	-0.24076177
47	0xbf4c0db4	-0.7970841
48	0xbf76374b	-0.9617812
49	0x3e950a07	0.29109213
50	0xbf807a35	-1.0037295
51	0xbdc77e86	-0.09740929
52	0xbd300a50	-0.042978585
53	0x3f03938d	0.5139702
54	0xbec507fd	-0.38482657
55	0xbf01a3cf	-0.5064058
56	0xbe4b1188	-0.19830906
57	0x3ea2253b	0.3166903
58	0xbf6eb17d	-0.93239576
59	0x3e8b6c0b	0.27230868
60	0x3ed7950c	0.421059
61	0x3e8501a0	0.25977802
62	0x3e141402	0.14460757
63	0x3f3f9a49	0.74844795
